…
2024-01-05 23:35:24.769712: W tensorflow/core/common_runtime/gpu/gpu_device.cc:1960] Cannot dlopen some GPU libraries. Please make sure the missing libraries mentioned above are installed properly if you would like to use GPU. Follow the guide at https://www.tensorflow.org/install/gpu for how to download and setup the required libraries for your platform.
Skipping registering GPU devices...
Model: "sequential"
_________________________________________________________________
 Layer (type)                Output Shape              Param #   
=================================================================
 conv2d (Conv2D)             (None, 26, 26, 64)        640       
                                                                 
 conv2d_1 (Conv2D)           (None, 24, 24, 64)        36928     
                                                                 
 max_pooling2d (MaxPooling2  (None, 12, 12, 64)        0         
 D)                                                              
                                                                 
 conv2d_2 (Conv2D)           (None, 10, 10, 128)       73856     
                                                                 
 conv2d_3 (Conv2D)           (None, 8, 8, 128)         147584    
                                                                 
 global_average_pooling2d (  (None, 128)               0         
 GlobalAveragePooling2D)                                         
                                                                 
 dropout (Dropout)           (None, 128)               0         
                                                                 
 dense (Dense)               (None, 10)                1290      
                                                                 
=================================================================
Total params: 260298 (1016.79 KB)
Trainable params: 260298 (1016.79 KB)
Non-trainable params: 0 (0.00 Byte)
_________________________________________________________________
2024-01-05 23:35:24.905681: W tensorflow/tsl/framework/cpu_allocator_impl.cc:83] Allocation of 159936000 exceeds 10% of free system memory.
…
